cifar/cifar_net2.pth (torch_old, 295179 bytes, 20 tensors)

conv1.weight f4 [16, 3, 3, 3]
00000000: 5a4e 19be c262 9a3d 1eec 6b3d 5f0e a9bb
00000010: 3bd6 88bd 6406 e13d 03b4 7a3d cfcb 113e
00000020: 89b3 30be 6d15 c5bd 2ab8 143e fa03 ccbd
00000030: 28d7 d7bd d19d 87bd a839 c6bd d977 0ebe
00000040: 45f2 24bd 97e5 14be 55b5 afbd 01e9 9abd
00000050: 570b 4abd 6adb d13d df78 9bbd bc0b 213d
00000060: 6d02 e73d d4e2 6a3c 9917 aa3d fac4 cfbd
00000070: ebb9 583d 40e6 0d3d ef87 80bd d242 183e
00000080: 087c cd3c 3443 0abd 2323 923c 0cd7 a6bd
00000090: 7769 df3d 60d0 f9bd 11f9 e0bd c310 e2bd
000000a0: 0ded 173e eeb6 85bd 5eaa a43c 39a8 2fbe
000000b0: a866 bcbd 82af 423d 9cc9 133e 25f9 073e
000000c0: fc80 333e 10a0 89bc 156c b93d 03f9 0e3e
000000d0: be92 fa3d 6f02 0ebe 6a04 35bd 6fe0 03bd
000000e0: 8636 2dbe 6633 d43d a58c a4bc 594c a03d
000000f0: e8c5 cebd 4e41 13be 7e19 abbd 5733 e7bd
00000100: 5580 10be f18c 013e 3b22 8bbd c3b9 0ebe
00000110: 61ad 96bd 0b6d 383e 70b2 f63b 7564 47be
00000120: caa3 09be 4ff2 cfbc aacb 96bd 8581 483e
00000130: ea95 01be eae6 463e c925 1c3e c214 a23d
00000140: c299 203e 1e97 90bd 2704 f33c c7c4 27be
00000150: 1e23 fdbd 90bf 1e3d 948f 743d f68f f73d
00000160: c3b3 ca3d f202 233e dec9 11be 1b14 4ebd
00000170: c68a 2fbe 9d7e f7bc f134 57bc f690 d03d
00000180: a091 b03d 7d97 4f3e e012 e7bd 79de 30be
00000190: e782 c33d 39d3 3b3e 2f1d 79bd 85ed 49be
000001a0: 3b24 5bbc 0fe3 e1bd c9ea d73d a1cb 203e
000001b0: 9021 a23d dc65 8cbd a301 84bb aabd ffbd
000001c0: f2f6 bd3d e47e 373e a962 033e a0d7 0e3e
000001d0: b4e6 043e 7299 6b3d 737a 66bd 2984 f83c
000001e0: 434c f33d 7b21 823c dd21 2a3e 758f 14bd
000001f0: b4ca 08be 2071 893d a905 f1bd e9d7 a63c
00000200: aaa7 26be a41b 8abc 80c1 16be aa1e a2bd
00000210: b423 3ebe 2e8a e63b 4d07 1bbe fd15 9e3b
00000220: c5ad 583e a59c 1a3d 3843 02bc 5242 633d
00000230: 50ca 57be 9ca0 833b 6b33 50be f70a ccbd
00000240: 44c6 6dbd 4ccc 2b3e a801 19bd 0df2 cb3d
00000250: 7d50 00be 78bb cd3d df63 953d e8db 57be
00000260: d3f9 cd3d 2d1c 193e 8569 9ebc 58c0 fe3d
00000270: 36fb aebb 4d47 0dbe 1378 463d c1cf 64be
00000280: e4f0 14be 74e0 063e 91ef 2e3e ef89 213e
00000290: bd9e c33d d337 86bd 6183 843d 6547 9f3d
000002a0: b737 f9bd a1e3 e7bd a940 a13d ab6f a8bd
000002b0: 5e00 9c3a 55a4 ab3d cee9 ebbd 6f7c 02be
000002c0: 5498 6abe 72c4 c53d 995e f33a 6a9a 893d
000002d0: 8dc0 abbc 8780 313e 5235 2bbe 7fba 763d
000002e0: 640c f7ba da45 893d 9dd3 ddbd 28f0 05be
000002f0: 2e05 0abe d70b b7bd 3d18 e93d f481 033e
00000300: 163b eb3c 4572 6a3e 829c 0a3c 2736 36bd
00000310: 1b10 2c3e b797 cb3d f403 83bd 1452 b7bd
00000320: a173 d2bd 8184 d1bd 5fb0 24be 240b 67be
00000330: b6b6 09be 51b9 313c b5bf af3d 9a5e 0b3d
00000340: 8300 4b3b 8244 24bd 81ae 573e 8676 bebd
00000350: f028 69bd f3fa 4e3b e758 233e 1577 e5bd
00000360: eaf6 f7bc d0f7 183e 3b7d 24be 0854 c43d
00000370: ce46 893d e620 853d 879c afbd 65e8 043e
00000380: 5b2c a03c 9595 a43d ce1e cfbd 29cd 7bbd
00000390: dce2 6bbd e6a5 34be de89 d6bc a126 92bb
000003a0: 387d 133e 7ac5 de3b f1bb 0e3d 621b 293e
000003b0: 9023 ca3c 1167 4b3d c804 51bd 5b49 2c3e
000003c0: 5549 38bd f8cc 11be a5fd 1c3e 28a9 183e
000003d0: 41ec 10bd 0eb9 1fbe decb f5bd f806 28be
000003e0: 6c68 cabd 4673 f5bd 27fb bfbd 62f4 483d
000003f0: 8af3 083e a3ad 183d e2a1 5fbc 0077 a43d
-0.14971295 0.07538368 0.057598226 -0.005159184 -0.06681486 0.10987547 0.06120683 0.14237903
-0.17255987 -0.09623227 0.14523378 -0.09961696 -0.10539085 -0.06621898 -0.09678966 -0.13912906
-0.04027011 -0.14540707 -0.08579508 -0.07563973 -0.04932722 0.10246928 -0.07591414 0.03931783
0.112797596 0.014336307 0.08305282 -0.10144992 0.05291168 0.03464341 -0.06275927 0.1486924
0.025083557 -0.033755496 0.01783902 -0.08146486 0.10908788 -0.121979475 -0.10985006 -0.11038353
0.14836521 -0.06529032 0.020100769 -0.17154016 -0.091992676 0.04753066 0.14432377 0.13278635
0.17529672 -0.016799957 0.09053818 0.13962178 0.1223502 -0.13868116 -0.044193663 -0.03219646
-0.1691533 0.10361366 -0.020086596 0.07827062 -0.10096341 -0.1438038 -0.083544716 -0.11289089
-0.14111455 0.12651421 -0.06793638 -0.1393805 -0.07357288 0.18010347 0.0075285956 -0.19471915
-0.13441387 -0.025384096 -0.073630646 0.19580658 -0.12654844 0.19424024 0.15248789 0.079141155
0.15683654 -0.07060073 0.029665066 -0.16383658 -0.12360214 0.038756907 0.05970724 0.12088005
0.09897568 0.15919092 -0.14237162 -0.050312143 -0.17142782 -0.030211741 -0.013135181 0.10183899
0.08621526 0.20272632 -0.11282897 -0.17272367 0.09546452 0.18342294 -0.060818847 -0.19719513
-0.013375337 -0.11029636 0.105428286 0.15702678 0.07916558 -0.06855366 -0.0040285154 -0.124873474
0.09275617 0.17919499 0.12830605 0.13949442 0.12978631 0.057519384 -0.05626912 0.030336456
0.1187978 0.015885105 0.1661448 -0.036269624 -0.13358575 0.0671103 -0.11768658 0.020366626
-0.16274896 -0.016858883 -0.14722252 -0.07916005 -0.18568307 0.0070355153 -0.15139504 0.0048243986
0.21160038 0.037747044 -0.0079505965 0.05548317 -0.2107327 0.004016949 -0.20332114 -0.09963029
-0.05805041 0.16777152 -0.037355095 0.09958277 -0.12530704 0.100455225 0.072944395 -0.21079981
0.10057416 0.14952154 -0.019337425 0.124390304 -0.0053400053 -0.1379673 0.048454355 -0.22344877
-0.14545017 0.1317156 0.17083575 0.15775274 0.09551761 -0.065536164 0.06470371 0.07777289
-0.1216883 -0.11322714 0.07873661 -0.08224424 0.0011901965 0.08380953 -0.11519204 -0.1274278
-0.22909671 0.096566096 0.0018567621 0.06718905 -0.020965839 0.17334186 -0.16719559 0.06023645
-0.0018848297 0.06702776 -0.10831378 -0.13079894 -0.13478538 -0.08937805 0.11381576 0.12842542
0.028714698 0.22895153 0.008460166 -0.044485237 0.16803019 0.09941047 -0.063972384 -0.08951202
-0.10275961 -0.10230351 -0.16082905 -0.22562844 -0.13448605 0.0108474055 0.08581487 0.034025766
0.0030975647 -0.040104397 0.21062662 -0.0929995 -0.056923807 0.0031582683 0.15951882 -0.11204354
-0.030269105 0.14938283 -0.16063397 0.0958634 0.06702958 0.065004155 -0.08574777 0.12979276
0.0195524 0.08036343 -0.101132974 -0.061474953 -0.057589397 -0.1764141 -0.026188787 -0.0044601713
0.14403236 0.0067984434 0.034847204 0.16514352 0.02467516 0.04965884 -0.05102995 0.16824858
-0.04499181 -0.14238346 0.15331133 0.14908278 -0.03538156 -0.15597937 -0.12001775 -0.16408908
-0.09883198 -0.11984877 -0.093740754 0.049061187 0.13374153 0.037274968 -0.013649436 0.0803051

conv1.bias f4 [16]
00000000: 8edb 363e bb7d 34be c9e0 5cbc 2812 9abc
00000010: 38c1 843c 7386 7f3d 0c0e 793d 9a07 1d3d
00000020: b8f5 f0bd 6462 83bd eecc 2dbc dbd7 b2b7
00000030: 8c3a 1fbd e488 2fbc 5760 eabd d4b3 62bd
0.17857191 -0.17626087 -0.013481327 -0.018807486 0.016205415 0.06238408 0.06080441 0.038337328
-0.11765617 -0.06415251 -0.010607941 -2.1319769e-05 -0.038874194 -0.01071379 -0.114441566 -0.05534728

conv2.weight f4 [32, 16, 3, 3]
00000000: 2030 04bc 76a9 79bc 8d4c 6b3d 0b46 0e3c
00000010: 8be9 cbbc 38fa ec3c d79c 303c 5dff 0a3e
00000020: 065b e63d 6171 743d daea 6c3d 3682 49b9
00000030: 4f73 e6bc ed94 43bc 226a 453d 3353 a1bd
00000040: d272 98bd d22a e7bd 3974 5c3d 1dba 543d
00000050: 4f32 f83c 93aa b73d e0ae 8ebd 77c6 a0bd
00000060: f5eb 18bd d6a4 ed3d 1ef3 4e3d 1df1 5b3d
00000070: e77d 4e3d 5acd e63b d0c2 09bd c27f 80bd
00000080: 8732 d23b 20dd 3cbd a26f 293c 5c4f a23c
00000090: 140c a0bd 5689 50bd 21cc 0dbd a481 6abd
000000a0: a9f9 4fbc 3c96 763d 658d c1bc ab47 c33d
000000b0: 6b4a c83d f2e5 0b3d c077 e03c b710 c33d
000000c0: 158c 11bb ade6 013c d41d 13bd aaef 7fbd
000000d0: acca 6cbd e4d0 c03d d163 c2b8 c1e5 b2bc
000000e0: 0d2d 233d e345 4aba 09d8 8c3d 71eb 113d
000000f0: 2705 6a3d a519 18bc cc03 973d 2a52 83bc
00000100: 41c2 84bd 116c bdbb 0933 57bd 25c4 c23c
00000110: dda6 26bd c60e 4c3d 1f1a 503d df47 443d
00000120: d24a 0c3c 7f0c ad3d 90d5 67bc 27ed 843d
00000130: bcd3 66bd 09b9 f2ba c7a3 26bd 6658 02bd
00000140: 89b9 123d 37b3 bb3d d46b bc3d 8e00 08bc
00000150: 793a 463d 9584 cfbc 446a 76bd cc12 833b
00000160: 3d40 24bd 0875 8bbc f1c9 4aba a088 d0bc
00000170: aef4 da3c 70e7 843d 0c94 123d 8fbc 42bd
00000180: 787f 803c 866f adbc 81d9 923c ffaf aa3c
00000190: e35c d03d c271 a83d 46c4 903d 752c c23c
000001a0: ba02 903c ef89 843b 09b3 47bd 6f8d babc
000001b0: 47c5 923d 7394 313d 17fd 4aba 76a8 1f3d
000001c0: 1f68 96bd 0659 bcbc 3cd7 f4bc 67c8 2e3d
000001d0: 761e 66bd dcf9 2d3c e932 f33d db21 353d
000001e0: 616f c4bd 4e6b 0b3d a660 413d d264 f93c
000001f0: 95d9 c3bc 2119 ae3c f854 16bb eb6e d3bd
00000200: 5919 b83c 0cf8 b9bc 8edd 173d 9d72 17bd
00000210: 36fb 9bbd 624d 99bd e352 f73c c67b 933d
00000220: 92b7 c13d e110 adbc 7956 253b d39f c73d
00000230: 9965 603d 2a1f cf3c 2ced 113d 0963 17be
00000240: 87cb 813d be3a 2cbd 01ab be3c eee1 913d
00000250: 8fda 173d 5a57 033d 62d5 e9bd 3312 923b
00000260: ff46 4bbd b385 38bd ae79 80bd 2a46 903d
00000270: c9b9 143d 14bf 8b3d e365 11bc 7795 f2bc
00000280: 3f61 77bd 510a 7cbc 5a83 0abd 3098 ee3c
00000290: 9205 fcbc 5d3f 2f3d 74b2 93bc 8509 3abd
000002a0: e6e0 bc3c a79e 93bd aef7 ed3c 486c 1d38
000002b0: 6d1e 90bb 461b f8bd de9a dfbc f766 d03d
000002c0: c2d3 dbbd 27e4 64bd 9d8c 863d 6968 5bbd
000002d0: 2c82 1cbd fad2 c93c 0221 cbbd b3e8 5fbd
000002e0: 6caf e6bc 0df4 96bd edc2 ce3c 788f 8abd
000002f0: 7c80 dabb 64e8 2d3d 3d78 cb3c a51b 2ebe
00000300: 025a 5b3c b562 e83c fac2 e1bc 15f9 6abd
00000310: 9ae1 0ebd f659 a4bd 87c8 41bd c423 173d
00000320: 4e8c 61bc 809f 163d ff20 e13b eb72 12bd
00000330: e38f 013d 9882 983c 704f 80bd ee00 7a3c
00000340: 2889 d2bc b232 e33c 769a 2e3d 600d 943d
00000350: c58b 86bd 73d8 ec3d b5b9 b83d ad99 bc3d
00000360: 7d67 2c3d 6d0f ac3d f28c 10bd aa00 dabc
00000370: 6ed4 803c 50d8 763d a88b 0dbd f89d 36bd
00000380: 6213 833d 4a1c 20bd 7100 9d3d 03f4 d73b
00000390: 08cb 8fbd 3913 d23c ca48 4a3d 4105 2c3d
000003a0: 1da3 1fbd 03a7 233d e530 493d 175d d9bd
000003b0: 9a73 963d 31cd 7a3d edaa f6bc ec99 f63c
000003c0: c6de fe3d 2e65 9abd ce88 f6ba fe5d 623d
000003d0: e6a5 f3bc 53d8 1cbd 2ff3 bb3d 3182 7a3a
000003e0: 663d 10be a2f7 55bc 3018 fa3d 2be7 cdbd
000003f0: c35e 42bd 1756 ad3c 6db0 f3bc e4b2 14bd
-0.0080681145 -0.015238157 0.05744605 0.008683692 -0.024891635 0.028927907 0.010779581 0.13573976
0.1124783 0.05967844 0.05784116 -0.00019217361 -0.028131155 -0.011937362 0.04819692 -0.07877197
-0.07443775 -0.11287464 0.053821776 0.051935304 0.030297427 0.08968081 -0.069669485 -0.07850354
-0.0373344 0.116037056 0.050524823 0.05369674 0.05041304 0.007043523 -0.033633053 -0.06274368
0.0064147147 -0.04610932 0.010341557 0.019813232 -0.07814804 -0.050912224 -0.0346185 -0.05725254
-0.012693801 0.06020187 -0.023626992 0.09535154 0.09779819 0.03415484 0.027400851 0.095246725
-0.002220874 0.007928533 -0.03591712 -0.06248442 -0.05781047 0.09414843 -9.269233e-05 -0.02183807
0.039837886 -0.00077161024 0.06877143 0.035624925 0.05713382 -0.009283458 0.07373771 -0.01603039
-0.064823635 -0.005780705 -0.052538905 0.02377517 -0.040686477 0.049818777 0.05080616 0.047920104
0.00856276 0.08449649 -0.014150038 0.06490546 -0.05635427 -0.001851828 -0.040683534 -0.031822585
0.03582147 0.09165042 0.09200254 -0.0083009135 0.048395608 -0.025331775 -0.060159937 0.0040000435
-0.040100325 -0.017023578 -0.000773578 -0.025455773 0.026728 0.06489456 0.03578572 -0.047543105
0.015685782 -0.021171343 0.01792598 0.020835875 0.10173967 0.082248226 0.07068686 0.02370284
0.017579425 0.0040447633 -0.048754726 -0.022772519 0.07166534 0.043354463 -0.0007743402 0.038979016
-0.07344078 -0.022991668 -0.029887788 0.042671587 -0.056181394 0.010618653 0.11874945 0.04422174
-0.09591556 0.03403788 0.04721131 0.030443583 -0.023907462 0.021252217 -0.002293883 -0.1032389
0.022473024 -0.022701286 0.037076525 -0.036974538 -0.07616274 -0.07485463 0.03019089 0.07201342
0.094588414 -0.021126213 0.0025228544 0.09747281 0.05478439 0.025283415 0.035626575 -0.14783873
0.06337648 -0.04204821 0.0232749 0.07123171 0.037073668 0.032065727 -0.11417653 0.004457736
-0.049628254 -0.04504938 -0.062732086 0.07044633 0.03630999 0.06823555 -0.008874389 -0.029612286
-0.060395475 -0.015383319 -0.033816673 0.029125303 -0.030764375 0.042785037 -0.018029429 -0.045419235
0.023056459 -0.07207995 0.029048767 3.753256e-05 -0.0043981583 -0.12114577 -0.027295526 0.10175889
-0.10733749 -0.055881646 0.065697886 -0.05356637 -0.03821008 0.024636734 -0.09918405 -0.05466528
-0.02815982 -0.07370768 0.025239432 -0.06765646 -0.0066681486 0.042457953 0.024837608 -0.17002733
0.013388159 0.02836738 -0.027558792 -0.05736645 -0.03488312 -0.08024971 -0.04731038 0.036899343
-0.013766361 0.036773205 0.0068703885 -0.035754126 0.03163136 0.01861696 -0.062651515 0.015259011
-0.025700167 0.027734134 0.042627774 0.072291136 -0.06569628 0.11564722 0.09019796 0.09208999
0.04209088 0.0840138 -0.035290666 -0.026611645 0.015726294 0.060264885 -0.034557015 -0.044584244
0.06400181 -0.03908948 0.076661 0.0065903678 -0.07021147 0.025643932 0.049385823 0.041997198
-0.038973916 0.039954197 0.049118895 -0.106134586 0.07346268 0.061230842 -0.0301108 0.030102693
0.124448344 -0.0753883 -0.0018809082 0.05526542 -0.029742192 -0.03829224 0.09177243 0.0009556143
-0.14085922 -0.013059529 0.12211645 -0.100538574 -0.047453653 0.021159215 -0.029747212 -0.036303416

conv2.bias f4 [32]
00000000: 50fb dbbd fbf6 a5bd 5471 963d f8a2 91bd
00000010: 8cdc 61bd 979c 1a3c 7e91 573c f278 d3bd
00000020: 39b9 33bc 98bc ebbc bb35 263d 4c82 58bb
00000030: e03d 813d 82d9 e2bd b74d 9f3c 5aa2 e23b
00000040: 3b70 d93d ac00 593d 2471 c33c f1b3 abbc
00000050: 5896 a73d 5bb3 fe3b ccfc aa3c 008f 193d
00000060: b5de 8ebb 7c7a e0bd 6ec0 88bd 23c3 cebc
00000070: 8525 11bd cc8a 213d 0008 dd3c 83d7 e03d
-0.107412934 -0.081037484 0.073458344 -0.07111162 -0.05514197 0.009436748 0.013157247 -0.10325803
-0.0109694535 -0.028776452 0.040578585 -0.0033036647 0.0631063 -0.110766426 0.019446237 0.0069163265
0.106171094 0.052979156 0.02385766 -0.020959826 0.08182973 0.0077728457 0.020872496 0.03748989
-0.004360045 -0.10960862 -0.06677328 -0.025239533 -0.035436172 0.039439008 0.026981354 0.109786056

conv3.weight f4 [16, 32, 3, 3]
00000000: effe 1e3d c87e 893c ce83 9b3c 299a 38bd
00000010: e1e7 973c 409a 57bc ffa4 08bd 735f 203d
00000020: 9499 7d3d 77ba c93c 71b4 d13b d9ca 2e3d
00000030: d691 8cbd ef0f 64bc bb69 16bd 6b35 e83b
00000040: f1d1 1bbd 0e6e 3e3c a199 6d3c fa89 28bd
00000050: 91f9 51bc 4e17 a43d 869d ad3d ab6d 5d3d
00000060: 82b9 ad3b fedc b33d ff9e 2f3d d1d1 253d
00000070: 2f9c 33bd 6969 9abc 45e8 31bc aee4 e03c
00000080: 980c d5bc a1cd 0dbd 973c d63b c94e 313c
00000090: 8bd3 a3bc 5295 2a3c 031d cf3c 1c2f 13bd
000000a0: 202d 8bbb 0a48 e6bc cb6e 5abd 5cb1 e0bc
000000b0: ab8c b83c fbea 50bb 2276 843b bbf9 553d
000000c0: da3f 75bc 0039 433d 2662 b33d 9bf4 29bd
000000d0: 786d 23bb fc32 873c 4419 e7bb 1af1 83bd
000000e0: fd70 5b3d 094e 56bd 01fe 21bd aa86 2cbd
000000f0: 2168 bdbc b9cd 9abc 4880 94bd 3777 6a3d
00000100: 0565 353d 95a4 333a 913b 413c a83d e13c
00000110: 48c6 0abb 660c 22bd 3bb5 20bc 55d4 f3bc
00000120: ba37 6e3d decd 1f3d c493 b03d 322c 123c
00000130: a44e 5dbc dd5f 46bd 31a3 d2bc c366 0b3c
00000140: 61c2 b93c 8c2e 483d ad8e e03c 661f 073d
00000150: 7a7a 0f3d d745 5a3d 765b 803d cede e83c
00000160: 74c3 893d 7a65 f63c 1433 92bc 581f 4cbd
00000170: e5d1 15bd 8b1d 6cbd 6dd7 96bd cbc4 6bbd
00000180: 920b 3abb c4a1 4fbc 2582 6ebd 63ea c83c
00000190: c0b8 0f3b ba0d 23bc 42e8 8bbb 6a96 233c
000001a0: b6f6 cebc 02d6 10bd bfad 01bd d812 01bd
000001b0: 93b1 223b 5eb6 8fbd 3808 6abd 4207 ddbd
000001c0: 3a1b b0bd 9469 01be 2b12 43bd e953 f4bd
000001d0: 02e2 a6bd bafd 1bbd 370f 4d3c bf0e c13c
000001e0: a934 f6ba 91d4 07bb f642 273d d23c f3bc
000001f0: 6b84 243c 9665 64bc 53b3 10bc 2f4e 6bbc
00000200: 08b1 d93c e3aa cd3c 69cf ee3d a36d c13d
00000210: 503f 553c 0e19 543d 4f1a 053d 46d2 fb3c
00000220: 319b a93c ae03 2a3d 0b0f 39bb 031a 763d
00000230: 8e6c 613d a5fa 2e3b 7f53 363d f277 073d
00000240: 2183 2bbc c8b0 833b 8692 aabb 6038 9b3d
00000250: 1cff 6f3c 92dd 843c f6f2 2c3d 9e9f b03d
00000260: 9b30 233d 034a 44bc ab18 c0bc 8fe8 143d
00000270: c580 7f3d 3d22 c93d 5740 ec3d 1033 34bd
00000280: 6d8c 733d 49a3 273d 2214 36bc 5bd1 01bc
00000290: 9c8e febc b189 42bc 0441 4abd 2971 a7bd
000002a0: f91d 053d 0f21 02bd 2f82 9abd 7c5b b7bb
000002b0: b965 e43a 89c2 8cbc 2f2b 0f3d 135e 443d
000002c0: 187b 133d 8c3c bb3c 7f5b d83c 2ca0 df3c
000002d0: 63a9 11bc 1b02 263c 548f 45bc 684f 09bb
000002e0: 74e7 7abd dd36 b2bd 0f54 ad3d d805 d7bb
000002f0: 2ce5 b9bd d751 a1bd a580 f0bd a19b c1bc
00000300: 2d65 b9bb 169d bc3c c4e1 913d b823 513d
00000310: 9a11 123d 90f5 ff3c 4ec0 ad3d de50 893d
00000320: 675d 4a3d 4689 db3c e52f 4abd 2586 04bc
00000330: 6546 1b3d 50af c2bd 1000 8bbd c18d e2bd
00000340: 6e94 99bd 05c2 a3bc 27ff 9abd 74ea 19be
00000350: 91bc c0bd 3166 a6bd a288 1abe 15cc ecbd
00000360: 5ccb 3d3d b0e4 59bb 3598 543d ba7f dd3c
00000370: 246b a1bb 17bf c63d 52df 50bd 33a7 693c
00000380: f15e 28bd 7ea0 873d e12b 5b3c c04b c6bc
00000390: e4f6 e1ba 327b 06bc 584b eebc 4ed5 d83b
000003a0: d707 4d3c cb95 fbbc 689e 023d 308b 073d
000003b0: 1c5f c83c a271 6bbd 9db8 b6bd 73cc cf3a
000003c0: f328 4e3d 1bb9 03bb e43b 583c 6570 aebc
000003d0: a0ac 443c 1d90 a8bc 78a8 81bc 53f0 263d
000003e0: 4629 093d 7136 5ebd 24c1 07bd 9cc8 663c
000003f0: 913f 0d3d ded6 f23c b07c 0d3d a4da 9c3b
0.038817342 0.016784087 0.018983748 -0.045068894 0.018543186 -0.013159335 -0.033360478 0.039153527
0.06191404 0.024625046 0.006399684 0.04267392 -0.068637535 -0.0139198145 -0.036721926 0.007086446
-0.038042013 0.011622919 0.01450196 -0.04114721 -0.012815849 0.080122575 0.08477311 0.054059666
0.0053016553 0.08782385 0.04287624 0.0404833 -0.04385012 -0.018849092 -0.0108586 0.027452793
-0.026006982 -0.03461993 0.0065379846 0.0108220065 -0.019998332 0.010411577 0.025282389 -0.0359336
-0.0042473227 -0.028110523 -0.053328317 -0.027428322 0.022528013 -0.003187834 0.004042403 0.052240115
-0.014968837 0.04766178 0.08758955 -0.04149304 -0.0024937075 0.016503803 -0.0070525724 -0.06442471
0.05357455 -0.052320514 -0.039548878 -0.042120613 -0.023120942 -0.018896924 -0.0725103 0.0572426
0.044285793 0.0006852833 0.011793987 0.02749522 -0.0021175314 -0.039562605 -0.009808834 -0.029764334
0.058158614 0.03901469 0.08621934 0.00892167 -0.013507519 -0.048431266 -0.025712581 0.008508387
0.022675695 0.048872516 0.027411783 0.03298893 0.035028912 0.05328926 0.06267445 0.028426554
0.06726733 0.030077685 -0.017846622 -0.04983458 -0.036577124 -0.057645362 -0.07365308 -0.057560723
-0.0028388244 -0.012672845 -0.058229584 0.024525827 0.0021930188 -0.009952003 -0.0042696306 0.009984592
-0.025264125 -0.035360344 -0.031659838 -0.03151211 0.002482508 -0.07017206 -0.057136744 -0.107924
-0.08598943 -0.12637931 -0.04762475 -0.11930067 -0.08148576 -0.03808377 0.0125158345 0.023566602
-0.0018784004 -0.0020726065 0.040835343 -0.029692087 0.0100413365 -0.013940236 -0.008831817 -0.014361902
0.026573673 0.0251059 0.11660654 0.0944474 0.013015583 0.051781707 0.032495793 0.030739915
0.020703884 0.041507415 -0.0028237726 0.0600834 0.055035166 0.0026699689 0.04451322 0.033073373
-0.010468275 0.0040188767 -0.0052054552 0.07579112 0.014648225 0.016218934 0.042223893 0.086241946
0.039841276 -0.011980536 -0.023449263 0.036354598 0.062378664 0.098209836 0.11535709 -0.04399401
0.059460092 0.040927205 -0.0111131985 -0.007923449 -0.03107386 -0.0118736485 -0.04937841 -0.081758805
0.032499287 -0.03176981 -0.07544362 -0.0055956226 0.0017425335 -0.017182605 0.034953292 0.04794128
0.036006063 0.02285602 0.026410816 0.027298056 -0.008890483 0.010132338 -0.012058098 -0.002095187
-0.061255887 -0.087018706 0.084632985 -0.006561976 -0.09076914 -0.07876938 -0.11743287 -0.02363378
-0.005657813 0.023024123 0.071231395 0.051059455 0.035661317 0.031245023 0.08483945 0.06704877
0.04940548 0.026798856 -0.049362082 -0.008088623 0.03790893 -0.095060945 -0.06787121 -0.11062194
-0.07499014 -0.019989977 -0.07568198 -0.15030843 -0.09410966 -0.0812496 -0.15091184 -0.11562363
0.046336517 -0.003324788 0.05190297 0.027038444 -0.0049261022 0.09704416 -0.050994225 0.014261055
-0.04110617 0.06622408 0.013377161 -0.024206042 -0.0017239717 -0.008208083 -0.029088661 0.006617225
0.012514076 -0.030711075 0.03188935 0.033091724 0.024459414 -0.057481416 -0.08921931 0.0015853777
0.05033202 -0.0020099345 0.013197873 -0.021293828 0.012004048 -0.020576531 -0.015827402 0.040756535
0.033486627 -0.054251138 -0.033143178 0.014085915 0.03448445 0.029643472 0.03454274 0.004786806

conv3.bias f4 [16]
00000000: c68c f736 f86b e4bc afa6 c23d c36a 93bc
00000010: dbec f83c 821b a1bd e62b 5c3d 5686 d93d
00000020: 7d93 813b f816 0abd f579 c7bc 692e 26bd
00000030: 7cb7 603c 0cc4 593d a9c8 3a3c 494e 9fbc
7.377562e-06 -0.027883515 0.095044486 -0.017995244 0.030386379 -0.07866575 0.053752802 0.10621326
0.0039543496 -0.03371331 -0.024350146 -0.040571604 0.013715621 0.05316548 0.01140038 -0.019446509

fc1.weight f4 [128, 256]
00000000: b482 43bc 8b59 e4bb 8d7f 64bc 1df4 243d
00000010: 3375 6b3d 69ec 173d 7006 103d 56c5 063d
00000020: ab48 193d 8720 1d3d 589c 433d b55f 913d
00000030: 504c c53d becc 863d 4ecc d73c c580 143d
00000040: df52 76bd 6b39 703c c37f bc3c b65f dabd
00000050: ad35 313b 2be7 37bc 0763 d33c 3da0 39bd
00000060: 734f d13d 40f0 8d3c ac61 a0bd 1fb4 03bb
00000070: 4a96 cd3c bc82 793d b2eb aa3b 7a52 6dbd
00000080: 04aa 87bc c4df 263d b9c3 79bd c1ae 003d
00000090: f62f a3bc 6657 96bd 7713 80bd a10a 23bd
000000a0: 1082 a7bb 51ed 04bb 0d36 77bd f309 9dbc
000000b0: 2ff6 8eb8 3f70 48bb 3849 3d3d fb24 4c3d
000000c0: ff3c aebd 69d5 d0bc 7a6f 8dbd 161b 2abb
000000d0: f872 3cbd 52c5 923c 07d4 f83c e849 adbc
000000e0: 4ab6 83bd 7e20 83bc 1d99 a2bc 4818 82bc
000000f0: edb4 37bd 9f9f 3abd eba9 4d3c 8685 83bd
00000100: 6581 cdbd 51ff 72bd ccda c0bb be44 f2bd
00000110: 5c53 973a 4304 7a3d 69c4 bf3c f605 4cbc
00000120: 0f70 bd3d 7836 ce3c 1e3a 85bc 3edf 9e3d
00000130: 070a b9ba b998 0ebc ba3b b23b eb0a 813b
00000140: 4058 0dbc 9eda ae3b 78ac b4bc 5450 debc
00000150: fbff ee3c 1b69 e23c da74 213b f7af c03c
00000160: b79f 183d a19f e4bb 8848 bdbc 23d0 f93c
00000170: 569b d13c 9c0b 0fbd 7cfe 8bbd 7b37 8b3c
00000180: a180 bebc dab2 863c 8654 00bd bc41 02bd
00000190: 7345 d6bc 4bbc a53c 0b03 753d 5764 d7bd
000001a0: 7f05 4fbd 84f5 3f3d 109e 81bc 08dc 5f3d
000001b0: 02f8 4b3d 0e25 60bb 55f3 71bc d5ce 22bd
000001c0: c77b 16bd 7a96 2dbc 6bd1 9e3b 581f 3bbd
000001d0: 2460 8d3d d478 34bd 9c67 b2bc a861 48bc
000001e0: 83bc d93a 96fd 183d 77f3 e9b9 e95d 1d3c
000001f0: 53d6 c8bc a4cc 48bc fedd 843b 4b98 983c
00000200: c948 05bd 736f f4ba ed55 21bc 0565 bebd
00000210: 7c24 b13d 5386 debc 02a8 05bd 2625 823c
00000220: b122 973c 9a14 183d 6698 2e3d 5a3f 313a
00000230: 25c0 8dbc 51de 373d f761 b3bc 8da2 163c
00000240: 079a c73c 016a 92b9 233d 9cbb f60e 59bd
00000250: a3fe 64bd 22c6 9a3d 5df5 553d 3dd6 bdbb
00000260: 58ee 3bbc 4933 20bc 44c7 03bc 78c5 d8bd
00000270: 0e6a 86bd 640f 93bc 358b 7bbd 080f b2bd
00000280: 8d98 eabc 8bc6 84bd 2e72 5dbd 47a2 c0bd
00000290: 504e debc 3069 57bd 1353 823b dfa0 973d
000002a0: 7cea e0bc 15c4 4cbd f879 5f3c 54d9 1e3c
000002b0: 1891 83bd 7d46 4c3c 4e3b 80bc 41dd babc
000002c0: fe5b 3abe e855 9bbd ff44 dc3b a0e6 e4bd
000002d0: b802 5fbd d9f7 5ebd 5dce 34bc f5ba 063d
000002e0: 340f 1ebc e886 dcbb 32b1 10bd 16ac 963c
000002f0: 40de 5abd 587c 0b3d d934 c33d 0c9c 183d
00000300: 662d 0fbc c239 80bd 2457 76bc 43ba 1abd
00000310: dd3f d4bc cb04 943c bbea c93d 05a4 ed3b
00000320: a3b1 c93c 1bb9 c6ba 4fc9 573d 0c94 453a
00000330: 1872 873d 48e0 78bc fa0c fabc 1133 4ebc
00000340: 709d 19bd bee9 d73b 93e0 403d 7b03 fcbc
00000350: 377d d03b a724 d7bc 8a86 13bd 8a2c 523c
00000360: c63f 02bd 49d8 a6bc eac5 21bc 3b3f ae3a
00000370: 32c2 04bd de5c d03c 6d19 89bc 1013 59bd
00000380: db1b 20bd 3531 e13c 608e b6bd 1ec1 06be
00000390: f0d0 6a3c 628c 4c3d 20b0 f93c dbc1 05bc
000003a0: e858 7f3d 83f5 92bc fbb3 29bc ae9e bfbc
000003b0: ce78 59bd a2ea 0bbc 94dd a4bd 94c2 f0bd
000003c0: c1c5 93bd d056 003d b873 513d 19e4 1dbd
000003d0: 4fc5 5dbd 5d13 693d 3bc5 343c 54c5 a7bd
000003e0: 5915 8b3c 420f 23bd c488 2dbd f127 28bd
000003f0: 9067 67ba 0f73 52bd 619f 3a3c 0bc7 003d
-0.0119330175 -0.006968682 -0.013946426 0.040271867 0.057484817 0.037090693 0.03516239 0.032903038
0.037422817 0.0383611 0.047756523 0.07098333 0.09633696 0.0658202 0.026342537 0.036255617
-0.060137626 0.014662127 0.02301014 -0.10662787 0.002704005 -0.011224548 0.025804056 -0.04531883
0.10220232 0.017326474 -0.078311294 -0.0020096374 0.025096077 0.060915694 0.0052160854 -0.057939984
-0.016560562 0.040740743 -0.06097767 0.03141666 -0.01992033 -0.07340889 -0.062537126 -0.03980506
-0.00511194 -0.0020283053 -0.06035428 -0.019169783 -6.816943e-05 -0.0030584482 0.046212405 0.049839955
-0.08507728 -0.025492387 -0.06906028 -0.0025956086 -0.04600808 0.017916355 0.03037454 -0.021153405
-0.06431253 -0.016006704 -0.0198484 -0.015880719 -0.04485028 -0.045562383 0.012552719 -0.06421952
-0.10034446 -0.05932552 -0.0058854576 -0.11829518 0.0011545229 0.06103922 0.023409085 -0.012452593
0.09249889 0.025172457 -0.016263064 0.07757424 -0.0014117368 -0.008703404 0.005439249 0.003938069
-0.0086269975 0.00533612 -0.022054896 -0.027137913 0.029174795 0.027638009 0.00246363 0.023521407
0.03726169 -0.006977037 -0.023105875 0.030494755 0.025586765 -0.03492318 -0.068356484 0.016994229
-0.023254694 0.016442705 -0.031330608 -0.03180097 -0.026156163 0.020231387 0.059817355 -0.10517185
-0.05054235 0.046865 -0.01582244 0.054653198 0.049797066 -0.0034201774 -0.0147674875 -0.03974803
-0.036739137 -0.010594958 0.004846742 -0.04568419 0.06903103 -0.044060543 -0.02177792 -0.012230314
0.0016611967 0.037351213 -0.0004462262 0.009604909 -0.02451626 -0.012255821 0.004054784 0.018627306
-0.032540116 -0.0018648937 -0.009847146 -0.09296612 0.08649537 -0.02716366 -0.032630928 0.015886854
0.01844916 0.037129022 0.042625807 0.0006761454 -0.017303536 0.04488975 -0.0218973 0.009194029
0.024365438 -0.0002792627 -0.0047680303 -0.052992783 -0.055906903 0.07557322 0.05223595 -0.0057933615
-0.0114704 -0.009777852 -0.008043114 -0.10584539 -0.06563197 -0.017951675 -0.061412055 -0.08694273
-0.028637195 -0.064831816 -0.05406397 -0.09405952 -0.027136952 -0.05259055 0.0039771884 0.074037306
-0.02745556 -0.049991686 0.013639919 0.00969537 -0.06424159 0.012467978 -0.015653279 -0.02281058
-0.18199155 -0.07584745 0.006722092 -0.11176801 -0.054445952 -0.054435585 -0.011035529 0.03289314
-0.009647179 -0.0067299493 -0.035325237 0.018392604 -0.05343461 0.03405413 0.09531564 0.037258193
-0.008738851 -0.062610164 -0.015035424 -0.03777529 -0.025909359 0.018068692 0.098592244 0.0072522187
0.024620837 -0.0015161367 0.052682217 0.00075370143 0.066135585 -0.015190192 -0.030523766 -0.012585417
-0.03750366 0.0065891435 0.04708917 -0.030763378 0.006362583 -0.026262594 -0.03601698 0.012828002
-0.0317991 -0.020366805 -0.009873847 0.0013293991 -0.03241176 0.025434908 -0.016735757 -0.052996695
-0.039089065 0.027489284 -0.089138746 -0.13159606 0.014332041 0.049938567 0.03047949 -0.0081638945
0.062340647 -0.017939335 -0.010357852 -0.023391094 -0.053093724 -0.008539828 -0.08050075 -0.11755863
-0.07215453 0.03133279 0.05113575 -0.03854761 -0.054143246 0.056903232 0.0110333515 -0.08191934
0.016977953 -0.039809473 -0.042366758 -0.041053716 -0.00088273827 -0.05137926 0.011390538 0.031439822

fc1.bias f4 [128]
00000000: 5f8d c53c c6aa e73b c958 34bd 74df abbb
00000010: 4734 843b fb30 b9bb c806 07bd a449 3c3c
00000020: ba5e 67bd e220 3dba 1037 0a3c 5eb6 70bd
00000030: e396 b23c 0203 7dbd 3de3 523c 12b1 7f3d
00000040: 1dd5 613b bc8b 913c a489 18bd a8c4 293d
00000050: 5b99 23bc dca3 d43c a78d f0bc 394a 33bd
00000060: 259a 1e3d ff18 70bd 146d 6fbd e979 493d
00000070: ac15 c33b 3f4b 14bd 0188 41bd 5d84 efbc
00000080: 8308 d33c 891d 29bd 8a25 07bd 9cba 2e3d
00000090: e730 1c3d 432f d93c d700 a83c 850e 77bc
000000a0: 4f35 2fbd b607 ae3c 2776 783d ef3e 15bd
000000b0: 9f20 c0bc 6eff 76bd 81ac b73c 00f7 ca3c
000000c0: 3767 013d 2309 a4bc 006f 063c f6a0 1b3d
000000d0: 8d82 aa3c 6330 1fbd 781b 37bd be95 f2ba
000000e0: 823f 1c3c ddd3 37bd af4b 813b 454d 36bd
000000f0: 96ed 593d d10f 093d 6cfa 63bd 2a07 883b
00000100: d11c 7cbb 5f72 13bd 729b 813a 4204 4a3c
00000110: 912b 53bd 6c55 22bc 0930 f23c 8e4c c2bc
00000120: 4904 bd3b 5479 fdbb 00b0 0e3d 65c4 a13b
00000130: d42e b43c f9f6 6dbd 9708 a3bc 6e10 113a
00000140: f05f 5e3d db58 833c 1a8a e3bc 6bf3 2a3d
00000150: 0bee 65bd 915a 3e3a e7d4 3e3d c942 003d
00000160: dc80 6abd efe5 6d3b 9482 4abc 30a3 80bd
00000170: bcfe 2d3d 9bab 2dbd 9c4d c7bc faa7 743d
00000180: 5b6c dcbc 6777 313d 4a83 623d 9f02 56bd
00000190: c436 c63c 2909 df3c ba22 243b 266a edbc
000001a0: 07a6 6e3d b83c d0bc 7df5 7b3d e614 283c
000001b0: ed3d 553d 4839 8f39 22ae 5c3c 626c 4fbd
000001c0: 2e6e 3abd b9c8 16bc a39c e6bc 6c30 9a3c
000001d0: 4395 ebbc a44f a8bc 1ea9 70bd 770b b33c
000001e0: 0851 723d 9551 52ba 5a24 223d dce5 903c
000001f0: 1b02 f9bc b7c8 0b3d 0827 3d3d 864f 58bd
0.024115263 0.0070699183 -0.044029985 -0.0052451435 0.0040345523 -0.005651591 -0.03296545 0.011492167
-0.056486823 -0.0007214678 0.0084359795 -0.05876767 0.021800464 -0.061770447 0.012871561 0.062424727
0.00344593 0.017766826 -0.03724064 0.04144731 -0.009985293 0.02595704 -0.02936442 -0.043771956
0.038721222 -0.058617588 -0.058453634 0.04918853 0.005953511 -0.036204573 -0.047248844 -0.02923792
0.025760895 -0.041287933 -0.032994784 0.042658433 0.038132574 0.026511794 0.020508213 -0.015079145
-0.04277545 0.021243911 0.060659554 -0.03643697 -0.023453055 -0.06030219 0.022421123 0.024775982
0.031592574 -0.020023888 0.008205175 0.0379953 0.020814205 -0.038864505 -0.04470393 -0.0018507761
0.009536626 -0.044879783 0.0039457898 -0.044507284 0.053205095 0.03346235 -0.055658743 0.0041512446
-0.0038469324 -0.035997745 0.0009888245 0.012330117 -0.05155522 -0.0099080615 0.02956392 -0.023718145
0.005768333 -0.0077354107 0.034835815 0.004936742 0.021994986 -0.05809686 -0.019901557 0.0005533759
0.054290712 0.01603358 -0.027775813 0.041736048 -0.05613522 0.000726142 0.04658976 0.03131369
-0.057251796 0.0036300381 -0.012360234 -0.062811255 0.04247926 -0.042399984 -0.024329 0.059730507
-0.026907137 0.04332676 0.05530099 -0.052248593 0.024196036 0.027226048 0.0025045113 -0.02898128
0.058263805 -0.025419578 0.061513413 0.010258889 0.05206101 0.00027317763 0.013469251 -0.05064047
-0.04551523 -0.009203129 -0.028150862 0.018821917 -0.028757697 -0.020545788 -0.058755033 0.021856053
0.05915931 -0.0008023021 0.03958545 0.01768773 -0.030396512 0.034126963 0.0461798 -0.052810214

bn1.weight f4 [128]
00000000: aeef 813f 9bcd 7e3f 0ab7 733f 29b5 7f3f
00000010: ddf6 813f 5d5d 793f 7670 8a3f aefd 7c3f
00000020: 5cb8 813f cc13 753f 33fa 893f 5b29 803f
00000030: 2cef 853f 31b6 863f 682a 743f 3d05 813f
00000040: 1fbb 793f 3f70 843f 2a9e 853f 46d3 7d3f
00000050: 07ae 703f 63f9 7b3f dc4d 803f e9ee 783f
00000060: e0ab 7e3f a10e 803f e28e 813f db97 823f
00000070: 9d08 843f c279 783f c69c 7c3f d651 7e3f
00000080: d80d 7d3f cf7a 853f 5bc3 8b3f e5d1 773f
00000090: 1170 833f 00f8 7f3f 66db 8a3f 0e41 6b3f
000000a0: 4f4a 823f 4fc1 7b3f 27bd 783f 8cae 7d3f
000000b0: 2846 7a3f e3f0 753f 923f 723f 0379 843f
000000c0: f8a6 7a3f 2955 7a3f e703 803f c20d 813f
000000d0: f8f5 803f cd3f 7d3f bc07 7e3f 4764 7c3f
000000e0: c456 803f 719a 7a3f 41c7 823f 8cdb 803f
000000f0: 470c 823f e8bb 803f 0ac8 853f b2a9 793f
00000100: 2327 843f 1d06 843f 2efa 883f 1379 803f
00000110: e17c 873f 9250 763f 6f7b 813f a987 7d3f
00000120: 6ad9 833f f922 803f 2b99 753f dc61 833f
00000130: 1f66 853f 8827 733f e8ca 7d3f 986f 733f
00000140: 6bb0 6c3f 05fa 643f 2efc 7b3f 0458 823f
00000150: a155 783f 2489 833f d351 823f 69b6 7e3f
00000160: 06ec 803f 4cde 7b3f 7c1a 843f 9e76 7f3f
00000170: b058 8a3f 769c 7c3f 0e3b 7b3f 9ead 803f
00000180: 5f34 813f 2bec 783f 7efd 713f 7199 773f
00000190: 7348 753f 1fda 803f 62a2 743f 7eb4 7f3f
000001a0: 0fe8 7d3f 90bf 833f d0c5 763f db4f 823f
000001b0: b906 753f 7d6f 803f 7a0b 7a3f dd67 843f
000001c0: 68e1 823f 07af 783f 3cd6 773f ad25 8a3f
000001d0: 4fcf 783f e49f 713f 3c94 823f 4633 843f
000001e0: 5b59 833f 8cf0 823f a690 783f e14e 843f
000001f0: a42a 7a3f e93d 7b3f d5bd 7b3f 5f84 7d3f
1.015127 0.9953248 0.9520117 0.99885803 1.0153462 0.97408086 1.081557 0.98824584
1.0134387 0.9573333 1.077948 1.0012621 1.0463614 1.052435 0.95377207 1.0079724
0.9755115 1.0346755 1.0438893 0.991505 0.94015545 0.9842741 1.0023761 0.9723955
0.9948101 1.0004464 1.0121729 1.0202593 1.0315129 0.9706079 0.9867672 0.9934362
0.9884925 1.0428103 1.0918993 0.9680465 1.0268575 0.9998779 1.0848205 0.9189614
1.0178927 0.9834184 0.97163624 0.9909446 0.977633 0.9607069 0.9462825 1.034943
0.97911024 0.97786194 1.0001191 1.0082324 1.0075064 0.9892548 0.9923055 0.9859051
1.0026479 0.9789191 1.0217057 1.0067 1.0159997 1.0057344 1.0451672 0.9752456
1.0324444 1.0314366 1.0701349 1.0036949 1.0584985 0.9621669 1.0115794 0.99035126
1.0300725 1.0010673 0.9593684 1.0264239 1.042179 0.94982195 0.99137735 0.95092154
0.9245669 0.89444 0.9843167 1.018311 0.9700566 1.0276227 1.0181221 0.99497086
1.0072029 0.98386073 1.0320582 0.9979037 1.0808315 0.9867624 0.98136985 1.0052984
1.0094107 0.97235364 0.94527423 0.9671851 0.95813674 1.0066565 0.95560277 0.99884784
0.9918222 1.0292835 0.9639559 1.018062 0.9571338 1.0034024 0.9767376 1.0344197
1.0225039 0.9714207 0.9681127 1.0792748 0.9719133 0.943846 1.0201488 1.0328147
1.0261644 1.0229659 0.97095716 1.0336572 0.97721314 0.9814134 0.98336536 0.9903011

bn1.bias f4 [128]
00000000: 39f1 353b a8de 88bd 1550 8bbd d94b 8ebc
00000010: 1750 7ebd 5d3d fcbb 3bbe dc3b d960 c5bd
00000020: 207f f23c 640d 8dbd 6316 abbd a302 dfbb
00000030: 4b33 27bd 5bb5 bdbc 283d 9ebd 9673 63bd
00000040: 6953 e139 ec36 b13c 3ac6 d63b 12b4 d0bd
00000050: b9c1 9abb 9835 38bd a11d cabc 7ef5 6dbd
00000060: 5911 bb3b 0def c3bd 2376 d3bc 1695 633c
00000070: 48b4 cf3c 536e 19bd 265f 14bc 2a09 43bd
00000080: dc38 d1bd 1edf 29bc 867c 7abb 9b72 abbd
00000090: 92e0 673c 09f1 293c 3685 aebb 0fa2 41bd
000000a0: 481c 0bbe 4755 67bc 5115 a9bd e75c 3fbd
000000b0: 9217 a7bc d805 de3b 32a9 213c 6513 783d
000000c0: e3fb 56bd 7ed9 b9bb 61da 13bd 0026 02bd
000000d0: 478e 2cbd 9856 4fbd acf3 d83b 6cf4 bb3c
000000e0: 8148 98bd dcdb 55bc cc2c fb3c c0c5 10bc
000000f0: c84b 71bd 1543 ebbd ef88 383d 65ce 01bc
00000100: 2a39 58bd 3989 b5bc 87df aa3c fc1c d8bc
00000110: 01ee 4abd af13 04bd befc 2c3b 4f61 a8bd
00000120: 4687 9cbd e753 88bd f275 6abd f582 a8bb
00000130: 0519 6b3c 3b67 343c 90bd fbbc e003 fdbc
00000140: a8d6 82bc 656f d1bd b103 cabd cf55 31bd
00000150: ebf5 4cbd a613 be3c c62f 53bd 81f6 42bc
00000160: 5093 b73c 54f1 783c a80c 4bbd ecd1 25bd
00000170: 6bfd c0bd bdec a3bd 42b1 4f3d c52e cf3c
00000180: 20ef d63c 23db 42bd 92a2 e6bc b9af f6bd
00000190: 6232 abbc c585 ecb9 f282 c73c efde 96bc
000001a0: 8255 e9bc 2e0f 713c 490c 01bd 056e 02bd
000001b0: 0818 b7bd 2adc 523d 93a7 3abd 2aea 8abd
000001c0: 7932 14bd 809e bebc 8731 a13c 7a52 7abc
000001d0: 8deb cabc 5941 71bd ad82 68bd d813 453c
000001e0: bfb3 763c b0d2 57bd ce73 08bd 6756 9abc
000001f0: 326f f5bc 896c 8cbc e5a5 1b3c 66ae 61bd
0.0027762188 -0.06683093 -0.06802384 -0.017370151 -0.0620881 -0.0076977448 0.0067365444 -0.09637613
0.029601634 -0.0688732 -0.08353879 -0.0068057342 -0.0408204 -0.023157766 -0.077265084 -0.055530153
0.0004297749 0.021632634 0.006554392 -0.10190596 -0.0047228006 -0.044972986 -0.024672331 -0.058095448
0.005708855 -0.0956708 -0.025813168 0.013890525 0.02535452 -0.03745873 -0.009055888 -0.04761616
-0.10215923 -0.010368137 -0.0038221194 -0.08371469 0.014152663 0.010372409 -0.0053259386 -0.04727369
-0.13585007 -0.014119453 -0.08256019 -0.046719458 -0.020396981 0.006775599 0.009866999 0.06056537
-0.05248631 -0.005671679 -0.036096934 -0.03177452 -0.042127874 -0.05061969 0.006620845 0.022943698
-0.07435704 -0.013052907 0.03066101 -0.00883621 -0.05891016 -0.11487404 0.045052465 -0.007922743
-0.05278889 -0.02216016 0.02085854 -0.026381008 -0.049543384 -0.032245334 0.0026395763 -0.08221685
-0.07642989 -0.06656628 -0.057241388 -0.0051425644 0.014349227 0.01101094 -0.030730039 -0.030885637
-0.015971497 -0.10226325 -0.09863985 -0.043294724 -0.050039213 0.023202728 -0.051559232 -0.011899591
0.022409111 0.015194256 -0.049572617 -0.0404834 -0.09423336 -0.080041386 0.050706156 0.025290856
0.02623707 -0.047572266 -0.028153691 -0.12045235 -0.020898048 -0.00045113094 0.024354432 -0.01841685
-0.028483156 0.014713092 -0.031505857 -0.031843204 -0.089401305 0.051479496 -0.045569967 -0.067829445
-0.036180947 -0.023268938 0.019676937 -0.015278453 -0.024770522 -0.05890021 -0.056765247 0.012028657
0.015057503 -0.05269116 -0.033313565 -0.018840028 -0.029960249 -0.017141597 0.009500002 -0.05509796

bn1.running_mean f4 [128]
00000000: dc66 00bf 8686 27bf 9c58 89be c4a8 7abe
00000010: fcaf 24bf a79d 5ebf b85f 49bf 6ef6 92be
00000020: 8af4 76bf cfb4 1dbe 657c 15bf 0e83 cebd
00000030: df5f bfbe 3a18 46bf 023b d6be ec2d 18bf
00000040: 567d 53be fedd fbbe b372 81bf 01c6 02bf
00000050: a517 173e 14a4 1ebf 8a20 5ebf 4b43 18bf
00000060: 7f7f 1ebf 38e7 8fbe 204a 36bf 207a c8be
00000070: 5133 d2be c4c5 87bd 921b 33bd 0383 83bf
00000080: ee0f 30bf a1e2 4abf dda2 4cbf 3dbf 01bf
00000090: 1a3f eabe 9169 43be b612 6fbf 7f21 9c3e
000000a0: 2a85 e6be 4d61 0ebf de2a 04bf 5964 1bbf
000000b0: 9c55 b4be 8e39 27bf eb57 1fbe b278 c4bd
000000c0: a156 d0be 643f 1fbf 4102 51be 21d7 3cbf
000000d0: d94b c3be c4cb b5be 866a 3ebc 428c 22bd
000000e0: dba9 cdbe 0210 e7be 7c33 203e af6b 0bbc
000000f0: 43e3 03bf f14b 09bf d163 02bf 84f7 4ebf
00000100: 2e2b 4abf 3273 32bf 49f6 68bf 7f22 b2be
00000110: 8478 88bf 922e 2abe a051 79be 127f 1a3f
00000120: 7496 9ebe aa31 29bf 315b a5be 9f6e 0dbf
00000130: 944c 2ebf a508 a23e 0c0c 943d 542f b6be
00000140: 20aa 83be 4c07 5f3e fb38 b1bd 1aa4 23bf
00000150: 5d7a 1e3e 2aea 3ebf a1a0 e1be fe0c 78be
00000160: 1379 c5bd 11ed b1be 77b3 bebe 402b 44bf
00000170: b363 4fbf d563 a8be 0642 ccbe 56b1 c9bd
00000180: 4366 d6be 9dee 5a3e a251 4fbe b8bc fd3d
00000190: d86e d5be e0df 09bf 68b1 1ebe 902e a7be
000001a0: e49b 033d ed68 c1be e11d 96bd 2632 19be
000001b0: 01c0 0b3f 1b5f a6be 400e 09bf c22f 1fbf
000001c0: 1c02 a3be 330e 26be a713 1cbf 3d66 fabe
000001d0: b4de b53e 6a99 903d 1dc9 18bf 5eb6 99be
000001e0: 609f 21bf d10a 03bf e9a2 eabd b425 2fbf
000001f0: 04ff 17be c3d4 ccbc d56b f5bd d391 99bd
-0.5015695 -0.6543964 -0.26825416 -0.24478441 -0.6433103 -0.8695931 -0.7866168 -0.28703636
-0.96466887 -0.15401004 -0.58392936 -0.100835904 -0.3737783 -0.77380717 -0.41841894 -0.5944507
-0.2065328 -0.49192804 -1.0113128 -0.5108338 0.14755113 -0.61969113 -0.867684 -0.5947768
-0.61913294 -0.28106093 -0.71206856 -0.39155674 -0.41054776 -0.06629518 -0.043727465 -1.0274357
-0.68774307 -0.7925206 -0.7993601 -0.5068243 -0.45751268 -0.19083239 -0.93387926 0.30494305
-0.4502347 -0.5561722 -0.5162791 -0.60699993 -0.35221565 -0.65322196 -0.15560882 -0.09593333
-0.40691093 -0.622061 -0.20411016 -0.7376576 -0.38143805 -0.35507023 -0.011622077 -0.03968454
-0.40168652 -0.451294 0.1564464 -0.0085095605 -0.5151865 -0.536315 -0.5093356 -0.8084643
-0.78972137 -0.69707024 -0.910008 -0.34791943 -1.0661778 -0.16619328 -0.24347544 0.60350144
-0.30974162 -0.66091406 -0.32296136 -0.5524692 -0.680856 0.3164722 0.0722886 -0.35582983
-0.25715733 0.21780127 -0.08653446 -0.63922274 0.15476365 -0.74576056 -0.44067863 -0.24223706
-0.09642234 -0.3475118 -0.37246296 -0.76628494 -0.81011504 -0.32888666 -0.39894122 -0.09848277
-0.41874894 0.21380086 -0.20245984 0.12389511 -0.4168613 -0.5385723 -0.15497363 -0.32652712
0.03213109 -0.37775365 -0.07329918 -0.14960536 0.5458985 -0.32494435 -0.5353737 -0.6218225
-0.31837547 -0.16216354 -0.6096749 -0.48906127 0.35521472 0.070605114 -0.59681875 -0.30021948
-0.6313381 -0.5118838 -0.11456854 -0.68416905 -0.14843374 -0.025003796 -0.11983458 -0.07498517

bn1.running_var f4 [128]
00000000: c202 3b3e d127 643e f772 e83d 4657 143e
00000010: ad4e 6d3e 008b 883e 58ce 3c3e 1ee6 3f3e
00000020: 1d41 8f3e 4e9e 023e 2981 843e 2d6a 0d3e
00000030: 17ca 6a3e d2e4 ce3e 560d 313e a7dc 293e
00000040: 086e 203e 1468 953e 91a2 963e 8b73 273e
00000050: de02 203e 43cc 7b3e be81 753e e63b 763e
00000060: c43a 363e 6ace 213e 43c7 7b3e 7cff a53e
00000070: a143 7f3e 64ba b93e a10d dd3d 0fed a03e
00000080: 3b59 6d3e 8cd8 d63e c012 963e 8b15 4c3e
00000090: 5c4c 6d3e b9cc 4c3e 49e2 893e b425 223e
000000a0: d47c 423e 8de7 163e b88c 633e 63f5 603e
000000b0: a08a 483e 10f9 533e 8ab8 493e 26ea 233e
000000c0: ee13 0d3e 235e 853e ff05 713e 2a39 473e
000000d0: 7e85 4a3e 6d30 423e f667 1c3e 2b18 633e
000000e0: 9b8d 6d3e 57ed 913e e44c 3d3e 1ef4 883e
000000f0: de09 743e de52 2c3e dd95 953e 61b7 bc3e
00000100: 2b15 493e bfb1 aa3e da97 a63e dc5c 3c3e
00000110: fa45 ac3e a9ca 9c3e 27a4 3a3e 2d07 463e
00000120: 9b2d 093e a1fb 433e dab1 1a3e ec63 813e
00000130: 8b52 9c3e 57a2 2d3e 6ec3 2a3e a76a 2e3e
00000140: f5af 4d3e f15a fb3d 25dc 4f3e 49e9 6b3e
00000150: 65dd 0b3e b949 6a3e b48d 933e c92d 3f3e
00000160: b8b3 503e 6a57 853e c64c 313e 9377 a83e
00000170: 5f03 923e fb25 dc3d 09f0 803e d8be 643e
00000180: cfde 513e 3b41 f93d 13bd 073e 7bfd 203e
00000190: 8810 483e e093 703e 9d93 143e a907 1f3e
000001a0: 2c37 4b3e abbe a73e 5088 683e a2f2 623e
000001b0: c8b4 1d3e 0a9a 513e b74c 633e c33c 3f3e
000001c0: d07b a53d abcf 2e3e 6d6a 4f3e 04b9 4c3e
000001d0: c3ee 3a3e c0fa fe3d ce08 303e 5386 463e
000001e0: 05d9 9c3e 4c76 9a3e e8a2 303e 87b7 8e3e
000001f0: 6087 883e edc8 783e 0625 3c3e 6656 183e
0.18262771 0.22280814 0.11350053 0.14486417 0.23174544 0.2666855 0.18438089 0.18740126
0.27979365 0.12755701 0.2587979 0.13810034 0.22928654 0.4040895 0.17290244 0.16588078
0.15666974 0.29180968 0.29420903 0.1635267 0.15626094 0.24589638 0.23975274 0.24046287
0.17795855 0.15801397 0.24587731 0.32421482 0.24928142 0.36275017 0.10793615 0.3143086
0.2317857 0.41962087 0.2931118 0.19930093 0.2317366 0.1999997 0.26930454 0.15834695
0.1899293 0.14736767 0.22221649 0.21968608 0.19584131 0.20700479 0.19699302 0.1600729
0.13777134 0.26048383 0.23537444 0.194554 0.19777486 0.18963785 0.15274033 0.22177188
0.2319855 0.28501388 0.18486363 0.26748747 0.23831889 0.16828486 0.292159 0.36858657
0.19636981 0.33338735 0.3253773 0.18394798 0.33647138 0.30623367 0.18226682 0.19338675
0.13396303 0.19138958 0.15106907 0.25271547 0.30531725 0.16956459 0.16676113 0.17032872
0.20086654 0.12273205 0.20298822 0.2303821 0.13658674 0.22879685 0.28819048 0.1866981
0.20381057 0.26043254 0.17314443 0.32903728 0.28518197 0.10749432 0.25183132 0.22338426
0.20495151 0.12170645 0.1325572 0.15721695 0.19537556 0.2349391 0.14509435 0.15530266
0.19845265 0.32762656 0.22708249 0.2216287 0.15400994 0.20468917 0.22197233 0.18675523
0.08080256 0.17071407 0.20255442 0.19992453 0.18255143 0.124501705 0.17190859 0.19387178
0.30634323 0.30168378 0.17249644 0.27874395 0.26665783 0.24295397 0.18373498 0.14876708

fc2.weight f4 [128, 128]
00000000: 3d52 903d 9d1b 813d bbe5 90bc e1a8 11bd
00000010: 1352 99bd a27e 01bd cba3 fa3c c604 5abd
00000020: d6ef 31bd 2f72 c6bd 017f 65bc 792b 553c
00000030: 1ce6 a03d 829e d73c c302 9abc e8a5 5f3c
00000040: 4cbd 84bc 2779 eebb 21fc ee3d a2ff 83bd
00000050: 3d4e b23d d785 73bb 8724 ba39 4f77 ef3c
00000060: 960a 1c3d 2fc4 3b3d 4c00 10bd 4d7c 96bc
00000070: a9db dc3b 3ae6 803d 69e1 bb3d 4865 47bd
00000080: b8bf 66bc 4772 0ebc 42df a9bd a513 f5bc
00000090: bda8 a2bd 6d78 1cbc 5c70 21bd cadc 983c
000000a0: c785 dcbb e57d 7f3d 1d49 0cbd b7a1 f0bc
000000b0: 822b 3b3c 39c0 1a3d abc8 b83d 73d8 c13c
000000c0: cf43 803c 8c8d 25bc c17c b3bc b0b0 503d
000000d0: 03eb d0bd 34ef cbbd 0b5f 0dbd d4f2 d2bd
000000e0: bcfd c23c 1c55 e83d 0a39 833c ad01 083e
000000f0: a9ca 2bbd bdbd b9bd 8b4d b33c bcb7 96bb
00000100: ac47 f43d c376 583d 05f1 b5bd 8139 0e3e
00000110: cc2f fdbd 39fd 793d c790 7ebd 16c2 63bd
00000120: 7c6e d9bc aeb5 20bd 510d 19bd c4ce 593c
00000130: b8fb 9ebd 796b 7f3c f815 0fbd fb50 833d
00000140: 5dde 913c 6465 25bd c69e 99bd d3bb 473d
00000150: 8620 8a3c 7901 2dbe 1a00 8bbd c032 dc3d
00000160: b08b c7bc 4e16 95bc 768b 6a3d 2c9f 30bd
00000170: 84a9 2bbd e2f0 9ebc e8d3 81bd 4655 40bd
00000180: 5980 0ebd bea7 05bd bfcd 803d c7e4 3a3d
00000190: 10fe 0f3d 83e6 58bd e5e9 d93d 96f5 d13d
000001a0: b045 b43d c77e 053d de08 18be 8239 9f3d
000001b0: 5feb 9d3d df46 b7bc 56dd f6ba 6098 4bbd
000001c0: 0744 5abc a894 80bc b7c5 453d 6464 19bc
000001d0: 95e1 f33c 059e c53c d659 b13d 51e3 7f3d
000001e0: 558a 6abc 320b 3abd 6efc a8bd aeb0 213b
000001f0: 0665 82bd 0502 813d e9eb eebb e994 16bd
00000200: 09fc b23c dc5a acbd 2930 d7bd 7340 dabd
00000210: 0a91 62bd 1c61 eb3b 6e8d b73b d77c a0bc
00000220: e97c 133c 9f5c 123d 13f2 3e3d 9664 b43c
00000230: 1a12 f03c efff a7bd fb14 f4bc 90f6 e93b
00000240: ae59 063d 0bf4 8a3c 8ecd eebd f7d0 553d
00000250: 0d0f 863d 62bb 04be dbae 803d 65d3 1f3d
00000260: be19 713d 288c a03b 82bc a4bd 8a5d 88bd
00000270: 3f0c 293d 8c2c 4dbb c458 2dbc 9b83 b0bd
00000280: 4537 fcb9 65c9 963c a153 9abd e37a 35bd
00000290: f928 acbd aa29 e63c fe33 1a3d 5c31 523c
000002a0: bb10 f7bc c775 55bc 1239 0abd e365 90bd
000002b0: 74d2 ed3d 6dd2 753c 90ad 2cbd 0ffc 5c3b
000002c0: 0c73 23bc 673b a73c 7c5f 323d 374a cc3b
000002d0: 14bc c5bd 2a55 893c e133 f53a 9838 523d
000002e0: 299f f93c 31e0 83bc 291b 94bd 821a b0bc
000002f0: 1e43 7bbd 6c94 9fbd 5b33 8a3d a513 87bd
00000300: 91d3 80bd ec14 8c3d 3bf3 bcbd 61ef cb3d
00000310: e2dc 5fbd 891a 4abc 40fa a53d b749 f03c
00000320: c8ac 5fbc e2bd debd fedd 6c3c 7985 ef3d
00000330: 7167 3a3d 6b63 7abd 0487 3bbc 56ed b13d
00000340: 873e b43c aa7f 35bd 3354 eebd 0191 80bd
00000350: 0cfc 993d 08a1 c1bd 9aae dcbc 1c0c 6cbb
00000360: 8b59 e9bc 6bfb 4bbc f6d7 6dbd c5c2 063c
00000370: b56f 4ebc 916f eebd 9720 0d3d 0b54 18ba
00000380: e97c 87bd 834e bdbc 6fe7 123b dc25 ca3c
00000390: e708 583d 16a7 b7bd a545 14bd 7c12 7cbd
000003a0: a469 123d 912a 50bd dcc9 1dbc 9d5b dd3c
000003b0: 71b4 923c 14ac 8b3c 756a 903c 8477 b43c
000003c0: 6ecf 83bd ee53 cdbd 3cc9 d13c 4a88 803d
000003d0: da3e 1bbd 6cd3 33bc ac84 e83d 9dbc 79bd
000003e0: d494 45bc 572a d03c 64d1 ddbd b279 9abc
000003f0: d159 89b9 3362 703c 73a9 90bc 65f9 1fbd
0.07046936 0.06304095 -0.017687669 -0.035561446 -0.074863575 -0.031614907 0.03059568 -0.05322721
-0.043441616 -0.096897475 -0.014007331 0.013010853 0.0785639 0.0263207 -0.018800145 0.013650395
-0.016203545 -0.007277626 0.116691835 -0.064452425 0.08706329 -0.0037158632 0.000355039 0.029231695
0.038096033 0.045841392 -0.035156533 -0.018369818 0.0067400527 0.06293912 0.09173853 -0.048680574
-0.014083795 -0.008694238 -0.08294536 -0.029916594 -0.079423405 -0.009550196 -0.039413795 0.018659968
-0.0067298147 0.06237592 -0.034249414 -0.029373987 0.011423947 0.037780974 0.090226494 0.023662781
0.015657334 -0.010104548 -0.021910073 0.050949752 -0.10201075 -0.09957734 -0.03451447 -0.10300222
0.02380263 0.11344358 0.01601841 0.1328189 -0.04194132 -0.09069393 0.021887561 -0.0045995396
0.11927733 0.052847635 -0.088838615 0.13889123 -0.12362632 0.061032508 -0.06214979 -0.055605017
-0.02654194 -0.039235763 -0.037366215 0.013293926 -0.07762855 0.015589588 -0.03493306 0.0641193
0.017806226 -0.040379897 -0.07500987 0.048763108 0.016861212 -0.16895093 -0.06787129 0.10751867
-0.0243586 -0.018199112 0.057261907 -0.043120548 -0.04190971 -0.019401971 -0.06339246 -0.046956323
-0.03479037 -0.032630675 0.06289243 0.045628335 0.035154402 -0.052954208 0.10640315 0.1025192
0.08802354 0.032591607 -0.14847133 0.077746406 0.07710909 -0.022372661 -0.0018834274 -0.049705863
-0.013321883 -0.015695885 0.04828426 -0.009362314 0.029770652 0.024123201 0.08659713 0.062472645
-0.0143152075 -0.045420833 -0.08251272 0.002467196 -0.06366925 0.06299213 -0.0072913063 -0.036763106
0.021848695 -0.084157676 -0.10507233 -0.10656824 -0.0553141 0.007183207 0.0056015765 -0.019590778
0.009001949 0.03573286 0.04661758 0.02202062 0.029305506 -0.08203112 -0.02979516 0.0071399882
0.03280037 0.016962072 -0.116603 0.052201238 0.065458395 -0.12962106 0.06283351 0.03901996
0.05886244 0.0048995204 -0.080437675 -0.06658466 0.041271444 -0.003130707 -0.010580245 -0.08618852
-0.00048106365 0.01840658 -0.07535482 -0.044306647 -0.084062524 0.028096039 0.03764724 0.012829151
-0.030159345 -0.013028569 -0.033745833 -0.07050683 0.116124064 0.015003783 -0.04215771 0.0033719575
-0.00997616 0.020414067 0.043548092 0.006234433 -0.09655014 0.016764242 0.0018707478 0.051323503
0.030471401 -0.016098114 -0.07231743 -0.021497015 -0.061343305 -0.07791981 0.067480765 -0.06595544
-0.06290353 0.06839928 -0.0922608 0.09957767 -0.05465401 -0.012335428 0.08104372 0.029332025
-0.013652034 -0.10876061 0.014457224 0.1169538 0.045508806 -0.06112997 -0.011445764 0.08687846
0.022002472 -0.044311203 -0.116371535 -0.06277657 0.07518777 -0.094545424 -0.026938725 -0.003601796
-0.02848508 -0.012450079 -0.058067285 0.008225148 -0.012599875 -0.11642373 0.03445491 -0.0005810863
-0.066156216 -0.023108726 0.0022415777 0.024676256 0.052742865 -0.08967416 -0.03619923 -0.061541066
0.035745278 -0.050821844 -0.009630647 0.027021224 0.017908307 0.017049827 0.017628888 0.022029646
-0.064360484 -0.10025774 0.025608651 0.06275995 -0.037901737 -0.0109757 0.1135343 -0.06097089
-0.012059409 0.025410814 -0.10830954 -0.018856857 -0.00026197595 0.01467185 -0.017658925 -0.0390562
